…
:434},"outputId":"ec2d71ea-9181-43e1-f3d0-a336a6c4ac0b","executionInfo":{"status":"ok","timestamp":1584789666138,"user_tz":-330,"elapsed":940,"user":{"displayName":"Sriram S","photoUrl":"","userId":"13770855626935891338"}}},"source":["model = create_model([200]*5)"],"execution_count":78,"outputs":[{"output_type":"stream","text":["Model: \"sequential_14\"\n","_________________________________________________________________\n","Layer (type)                 Output Shape              Param #   \n","=================================================================\n","reshape_14 (Reshape)         (None, 1024)              0         \n","_________________________________________________________________\n","batch_normalization_14 (Batc (None, 1024)              4096      \n","_________________________________________________________________\n","dense_70 (Dense)             (None, 200)               205000    \n","_________________________________________________________________\n","dense_71 (Dense)             (None, 200)               40200     \n","_________________________________________________________________\n","dense_72 (Dense)             (None, 200)               40200     \n","_________________________________________________________________\n","dense_73 (Dense)             (None, 200)               40200     \n","_________________________________________________________________\n","dense_74 (Dense)             (None, 200)               40200     \n","_________________________________________________________________\n","dense_75 (Dense)             (None, 10)                2010      \n","=================================================================\n","Total params: 371,906\n","Trainable params: 369,858\n","Non-trainable params: 2,048\n","_________________________________________________________________\n"],"name":"stdout"}]},{"cell_type":"code","metadata":{"id":"wa6ehahZnwqW","colab_type":"code","colab":{"base_uri":"https://localhost:8080/","height":330},"outputId"
…
4},"outputId":"c79739d4-70a0-4d2f-b209-4e6c9e653b34","executionInfo":{"status":"ok","timestamp":1584790503636,"user_tz":-330,"elapsed":870,"user":{"displayName":"Sriram S","photoUrl":"","userId":"13770855626935891338"}}},"source":["model1 = create_model([150] * 5)"],"execution_count":88,"outputs":[{"output_type":"stream","text":["Model: \"sequential_15\"\n","_________________________________________________________________\n","Layer (type)                 Output Shape              Param #   \n","=================================================================\n","reshape_15 (Reshape)         (None, 1024)              0         \n","_________________________________________________________________\n","batch_normalization_15 (Batc (None, 1024)              4096      \n","_________________________________________________________________\n","dense_76 (Dense)             (None, 150)               153750    \n","_________________________________________________________________\n","dense_77 (Dense)             (None, 150)               22650     \n","_________________________________________________________________\n","dense_78 (Dense)             (None, 150)               22650     \n","_________________________________________________________________\n","dense_79 (Dense)             (None, 150)               22650     \n","_________________________________________________________________\n","dense_80 (Dense)             (None, 150)               22650     \n","_________________________________________________________________\n","dense_81 (Dense)             (None, 10)                1510      \n","=================================================================\n","Total params: 249,956\n","Trainable params: 247,908\n","Non-trainable params: 2,048\n","_________________________________________________________________\n"],"name":"stdout"}]},{"cell_type":"code","metadata":{"id":"iXQilHNI4AeJ","colab_type":"code","colab":{"base_uri":"https://localhost:8080/","height":548},"outputId"
…
